homework/lab2/char_rnn.pth (torch, 36181 bytes, 5 tensors)

embedding.weight f4 [38, 18]
00000000: 4037 b53e 6481 c3bd 9e05 71bf 33a5 2bbe
00000010: ac40 d7bf b63a 073f 979a afbf 24ae 92bf
00000020: 19d1 4cbf b4a2 1c3f cf2e e83d ac40 d43f
00000030: 9fab a13f a748 debf c878 2140 5957 5b3e
00000040: ab84 2fc0 d3ba f23e 6489 033f d773 893f
00000050: c3ae 8f3e c723 12bf 04b6 ed3d c4b5 a73f
00000060: ee54 4f40 1d27 273f 5779 0340 5c14 5fbe
00000070: 5ce0 80bf f19e cc3f 0808 0cbd df71 1d3f
00000080: d9cd cbbf a8e3 6a3f 71c2 4fbf f4c8 6bbf
00000090: d2ab 8bbf 0464 8fbf 66c3 1a3f 8ac7 fc3f
000000a0: 7b34 913e 7cbe 8a3f 54b4 7ebf 5cdc 7d3f
000000b0: bb2e 51bf 9712 213e 152b 5fbf 8d66 19bf
000000c0: fd7b 1b3f 6b7b 883f a96a a2bd b4a3 6cbf
000000d0: 32e5 51bf 5cd2 b53f 725f c23f f2f7 3340
000000e0: 1d73 363f 4cad 0dbe 927a b63f 1d50 7cbf
000000f0: 1bd9 343d 1dbe 793e b9ab 513e 3919 52bd
00000100: 59bb 1e40 e24d 623f bf9e bbbf b554 ddbd
00000110: 3b6b a23f e601 fe3e 2ef4 04bf a6ef b03e
00000120: ab58 46bf 2770 0c40 79c3 19be b102 9cbd
00000130: 50da 923f 928f b83f 1f2b 4740 17a3 26bf
00000140: 0ecd 6abe 7917 2bbf 485e 0cbe a311 d7be
00000150: 6135 8d3d b108 483f 5eec f4bd 71a7 af3e
00000160: 5f1d 343f 3a1a 10bf f485 7cbf 45a9 b73f
00000170: 732d e7bf 9a19 64be 3279 a83d 0548 2ebd
00000180: 6d4d 1340 5ebb 193f 7d84 273f a12b c1bf
00000190: 538a 85bf 8708 003e eb8d c0be b45c 92bf
000001a0: 5d56 703d c8b7 6f3f 33e0 cbbe 7de0 4dbf
000001b0: 9091 ca3e e11e 483f 1010 c83f 9399 dfbe
000001c0: 554c bcbe b56e c83e 95ef 00bf e6f3 40c0
000001d0: 07e6 2abf 1ed7 98bd 220e 80bf b924 4fbe
000001e0: 09e3 a73e 87ed 2dbf 46cc 37bd 75c6 a4bd
000001f0: af5b 9bbf 6057 cc3e 20e1 893e 0385 383f
00000200: b404 963f c310 a5bf 7882 3abf 03d4 f9be
00000210: e413 bd3e 23bb 4a3e 8150 02bf 3e29 6d3f
00000220: f61f 35be 49ff 92bf 5ec8 903e 3eab 793f
00000230: 8df4 86be 5809 093f 2999 0e3f bd00 f03f
00000240: 9902 bf3f 2393 1dc0 64bd 39bf 389c 07c0
00000250: c634 e23e c49a 993e 3b4e 2dbf 0e95 3c3e
00000260: 3059 cbbe 3b19 31c0 b75e 113e 6669 38bf
00000270: f18d 1cc0 448c f13e 9667 b83f 3ab7 623e
00000280: fc97 06bf 1865 853e ed18 863f 0127 b2bf
00000290: f994 1d3f 7e66 4bbf 93b1 62be 1c8a 593f
000002a0: c205 703f 9ac8 4bbf fade eebf e268 ff3e
000002b0: 2f95 47bf 4905 2b3f 5a52 a8bf d48f da3d
000002c0: 05cf 483e 15b3 973e 01d9 d0be 9087 353f
000002d0: 0ee0 613f ea47 23be bb06 8b3f 86b7 17bf
000002e0: 588b d83e 9231 19bf ad5b 86bf b794 9dbf
000002f0: d31e c1bf ce41 cdbe 0977 cd3e d83e a0be
00000300: ab96 16be 8a46 3ec0 c965 2fbe ac47 603f
00000310: a158 c5be 58e8 cebe 7b87 a33e 79f7 3dbf
00000320: 3bd8 9f3e cb37 cfbd 5500 e1be 5c3d a63f
00000330: 7c44 8fbf 37be 0ac0 8833 a9bf b5d0 01bf
00000340: fa40 9bbf f3ee 503e f8c9 8e3e 6035 6abe
00000350: 2101 efbf d230 2e3f b88c 8dbf 38c0 1840
00000360: f9b6 d43f c15a 73bf 64f1 983e a42e 9f3f
00000370: 04ab b63f 0570 8cbf dbb2 f03e e380 1d3f
00000380: 575f 5440 7f76 9c3e 27a6 0ac0 6022 d2be
00000390: 2a39 e33e addc 56bf 9f21 6e3f d1c2 613f
000003a0: c24f c83f ab93 0dbf 3785 4e3f 88b3 6e3e
000003b0: 1374 e9bf 1b82 e3be 9f08 f9bd 5c26 943f
000003c0: 491b 2140 70aa b53e 0ff4 273f aa0f 41c0
000003d0: 9c54 a33f 454f 07bf 5776 023f 78b2 753f
000003e0: 7b9a 803f ab0f 08bf 4cc3 a73f 2448 893e
000003f0: 8215 17be 01e7 5e3e 9fef 6f3f 4703 47bf
0.35393715 -0.09546164 -0.94149196 -0.16762237 -1.6816611 0.5282396 -1.3719052 -1.1459394
-0.8000656 0.61185765 0.11337053 1.6582236 1.26305 -1.7365922 2.522997 0.21420039
-2.7424724 0.4740816 0.51381516 1.0738477 0.2806302 -0.5708584 0.11606982 1.3102345
3.2395587 0.6529406 2.054281 -0.2178511 -1.0068469 1.5986005 -0.034187347 0.6150188
-1.5922195 0.91753626 -0.8115607 -0.92103505 -1.091181 -1.1202397 0.60454404 1.9748394
0.28360352 1.0839381 -0.9949391 0.99164367 -0.8171193 0.15729748 -0.8717511 -0.59922105
0.60736066 1.0662664 -0.079305 -0.9243729 -0.8199035 1.4204822 1.5185378 2.8120084
0.712694 -0.13835639 1.4256155 -0.98559743 0.04415236 0.24388929 0.20475663 -0.051293585
2.4801848 0.8840009 -1.465782 -0.10807172 1.2688974 0.49610823 -0.5193509 0.34557837
-0.77479047 2.1943452 -0.15015973 -0.07617701 1.1472874 1.4418814 3.112007 -0.65092605
-0.22929785 -0.6683269 -0.1370784 -0.42005643 0.06894947 0.7813826 -0.11959146 0.34307435
0.70357317 -0.5629002 -0.98641896 1.4348532 -1.8060745 -0.22275391 0.08226241 -0.042549152
2.3016007 0.60051525 0.65436536 -1.509144 -1.0432838 0.12503253 -0.37608275 -1.1434541
0.058676112 0.936398 -0.39819488 -0.80420667 0.3956418 0.7817212 1.5629902 -0.43671855
-0.36776987 0.39146963 -0.50365573 -3.0148864 -0.66757244 -0.07462905 -1.0004313 -0.20228852
0.32790402 -0.6794056 -0.044872545 -0.08045665 -1.2137355 0.39910412 0.2692957 0.7207796
1.1720185 -1.289574 -0.7285533 -0.48794565 0.36929238 0.1979795 -0.5090409 0.92641056
-0.17687973 -1.1484157 0.28277868 0.9752692 -0.26358452 0.5352988 0.55702454 1.8750225
1.4922668 -2.4621055 -0.7255461 -2.1189098 0.44180888 0.3000089 -0.67697495 0.18416235
-0.39716482 -2.767165 0.14196287 -0.72035825 -2.4461634 0.47177327 1.4406612 0.22140208
-0.5257566 0.2605369 1.0476357 -1.3918153 0.6155544 -0.79453266 -0.22138052 0.84976363
0.93758786 -0.7960297 -1.8661797 0.49884707 -0.7796201 0.6680494 -1.3150132 0.10671964
0.19610222 0.29628816 -0.4079056 0.70909977 0.88232505 -0.15945402 1.0861429 -0.5926441
0.4229381 -0.59841263 -1.0496727 -1.2311009 -1.5087532 -0.40089267 0.4012988 -0.31297946
-0.14705913 -2.9730554 -0.17128672 0.8760936 -0.3854418 -0.4041164 0.319393 -0.7420574
0.31219658 -0.101180635 -0.43945566 1.2987475 -1.1192775 -2.1678598 -1.3218851 -0.50709087
-1.2129204 0.20403652 0.27888465 -0.22871923 -1.867222 0.68043244 -1.1058569 2.386732
1.6618339 -0.95060354 0.29871666 1.2436109 1.427094 -1.0971686 0.47011456 0.6152479
3.318319 0.30559155 -2.1663911 -0.4104185 0.4437955 -0.83930475 0.9302005 0.8818789
1.564934 -0.5530345 0.8067202 0.23310673 -1.8238548 -0.444352 -0.121598475 1.1574206
2.5172904 0.35481596 0.6560678 -3.016581 1.2760196 -0.5285533 0.5096182 0.95975447
1.0047144 -0.5314891 1.3106475 0.2681285 -0.14754298 0.21767808 0.9372501 -0.77739376

rnn_update.weight f4 [64, 82]
00000000: 7581 2c3c 58bc ce3c 0531 2c3e c215 c9be
00000010: 3be6 83be db8d 6b3e a7d2 353e 2e8d 6f3e
00000020: 08f1 9abb dd09 f13b 1cff 64be 3b48 a4bb
00000030: 2c73 dcbd f699 6c3e 22b0 b1bd 8bf4 323e
00000040: 588a e33d 746a c53c 6d51 213b 9d9a 00bd
00000050: be29 9bbd eeac 073d f97b 84bd afbf ebbc
00000060: 0293 87bc 54d1 5bbe fa39 dd3c 9e80 4dbd
00000070: 515e 733d 2773 063d 0c6d 703d f7a9 343e
00000080: 41ce 99bd c76f 4cbe 8bea b73d 0bcb b63d
00000090: 9dc3 c73c 18a4 5cbe f29f 7bbd d8ca 51bd
000000a0: 372d 56bd 2688 313c 2f3f 1b3e e802 68bc
000000b0: 2ff4 0abe bd01 68bc 2e4c 823b 53c2 063e
000000c0: 5cdc 943c da3d 0f3d 135e 5ebd 445f b03d
000000d0: a306 3ebd c49e a8bc a54d 46bd 904a 80bc
000000e0: dd41 be3a 6efd 1a3e 2be5 c1bd 907d 84bb
000000f0: 743a 40bd 1b64 fbbc 816a 843d fd89 fc3d
00000100: 6817 0d3e a709 af3d f69a 86bd 4dd9 61bd
00000110: e0ce bf3a 49dc 14be a227 f7bd 18d1 0b3e
00000120: e81f bbbd 8ae9 abbd a5b7 c43d e42e 963d
00000130: 3efe fd3c 978e 1abe f596 cb3d 0ed3 4f3d
00000140: 0e2a 49bb 3a79 593b 2c83 16be f64d 683e
00000150: aa61 69be cfe3 a4bd 84a5 263e 031a c03c
00000160: 6261 063e 83f3 81bd b85f 423d 4b99 aabd
00000170: b1a1 1e3e 61a8 74bd a6a6 26be f9e9 903e
00000180: 6df8 00be 33ab 02bc 21bd f2be 4376 52be
00000190: b2f3 80bb 2a7e 083e c698 13be 61b5 95bd
000001a0: 94f1 85be 76f0 fd3c 4056 953d e7a2 d83d
000001b0: 9863 3f3c e5a8 1dbe b2a7 06bc 2d8b 3abe
000001c0: 2913 ebbd a65f 37be f265 e2bd 3f2a 49bd
000001d0: 95c4 f53d 01bd 5bbd 3c6c 63bd 9a96 203e
000001e0: 8782 e7bd e175 ec3d 6989 2e3e a14b 82be
000001f0: 059c 623d 9aab abbd c0fd d0bd d457 853c
00000200: 7b70 2e3e 1ba2 4fbe 41b3 6a3d 4c30 80bd
00000210: 6723 ee3c e864 373d 1435 8ebd b9e6 ea3c
00000220: 1c0c 173d 8c86 69be 39da d8bd 83c1 4ebd
00000230: 6425 103e 95da bf3c 834d 4bbd cb06 8a3d
00000240: 5dc0 133e ae16 a8bd 20b3 1bbd 3df4 c5bc
00000250: 19a5 943d ff5a 4b3d 6a4e 17be f107 ef3d
00000260: a4e6 d23b 29dc f8bd f0df ebbc 1b94 f2bd
00000270: e162 03be 2519 8fbe 5cb8 5abd 3bb6 84bd
00000280: 306f 5e3d 9165 8c3e 31f7 24be 538b 47bd
00000290: d713 083e 9ae6 8fbc 67b8 99bd a388 6dbe
000002a0: 45f7 afbe dbd7 01be 7236 7b3d f023 cabe
000002b0: 3b9e 64be 1c2c 8fbe eb8a bcbc 7a36 8a3e
000002c0: ebd4 9abc 8d17 08be 61fd e43d 8776 b03e
000002d0: 762b b5bd ada7 71be 8bf0 bd3d ebcd 2abd
000002e0: 3591 96bd 0b6a 3cbc ad8e c43d 29b6 4cbe
000002f0: a6e9 cf3d 3195 80bd 475f a83c dfb9 073e
00000300: 5d67 7b3c 1f0c eb3d e420 6ebd 7534 e7bd
00000310: 3399 ae3d 7a6d cabd 9bcf 2bbc ae8a b83d
00000320: 13e4 92bc 379a 243d 3532 9a3d 5793 e33d
00000330: 6a0f e9bd c87d 21bd 36a6 4a3e 07f6 013d
00000340: f06a 243c 2436 16be c3ac 4fbd df19 d63d
00000350: 4da7 0bbc d8b4 73bb dfc3 233e 98cf cebd
00000360: c150 0c3e 1037 e4bc a05e 6c3e 7c66 5d3e
00000370: 7bae 30bc a23c 093e 3f77 ecbd 9a69 9fbd
00000380: 4c17 cfbc b6fd 1f3c 6397 ef3d 239c 1abc
00000390: 1f28 d83c 0593 85be 5846 813d b47a 5cbd
000003a0: bcb9 a43d 00ba 023d 0ad4 0dbe 648d 31bd
000003b0: c0ad e53d e836 9bbc f4ce c2bd f77e 72bd
000003c0: 5b8e c13d 6b7f de3d 1fbc 87bd e0cb bd3d
000003d0: d5b7 3abb 49f7 1e3e aadb edbd d100 5c3e
000003e0: 08de 26be 8db9 d3bc f63a 123d fcc5 ba3d
000003f0: aaa7 dd3c 3cc8 a43e 4bb7 96bd 6ad4 97be
0.010528912 0.025236294 0.16815574 -0.39274412 -0.2576159 0.23003332 0.17756139 0.233937
-0.00472844 0.007355912 -0.22362942 -0.0050134934 -0.10764155 0.23105606 -0.08676173 0.17476098
0.11110371 0.024098612 0.0024615184 -0.03139745 -0.07576321 0.033123903 -0.064689584 -0.028777925
-0.016549591 -0.21466571 0.027005184 -0.050171487 0.05941612 0.03282466 0.058697745 0.17642961
-0.07510043 -0.19964515 0.089802824 0.08925446 0.024385268 -0.21546972 -0.061431833 -0.051218837
-0.052289214 0.010835683 0.15160821 -0.014160849 -0.13569711 -0.014160571 0.0039763665 0.13160066
0.018171482 0.034971096 -0.054288935 0.086119205 -0.046393048 -0.020583518 -0.04841389 -0.015660554
0.0014515478 0.15135738 -0.094675384 -0.0040432885 -0.046930745 -0.030687382 0.064656265 0.12331007
0.1377846 0.08546763 -0.06572525 -0.055138875 0.0014633797 -0.14537157 -0.12068106 0.13653982
-0.09136945 -0.083941534 0.0960534 0.073331624 0.031005021 -0.15093456 0.09940902 0.050738387
-0.0030695233 0.003318383 -0.14698476 0.2268599 -0.22791162 -0.080512635 0.16274077 0.023449903
0.13123086 -0.06345274 0.047454566 -0.083300196 0.15491368 -0.05973089 -0.16274509 0.28303507
-0.12594767 -0.007975387 -0.4740992 -0.20552926 -0.0039353007 0.13329378 -0.14413747 -0.07309986
-0.26160872 0.03099845 0.072918415 0.10577946 0.01168146 -0.1539646 -0.008218693 -0.18217154
-0.11478264 -0.1790758 -0.11054601 -0.049112555 0.12000386 -0.053647045 -0.055523142 0.1568245
-0.11304193 0.11545921 0.17044605 -0.25448325 0.055324573 -0.0838234 -0.10204649 0.016277231
0.17035095 -0.20276682 0.057299856 -0.06259212 0.029069616 0.044773966 -0.069437176 0.02867447
0.036876783 -0.22805232 -0.10588498 -0.050477516 0.14076763 0.023419658 -0.049634468 0.06739577
0.1442885 -0.08207451 -0.038012624 -0.024164313 0.072580524 0.049647328 -0.14776006 0.116714366
0.006436186 -0.12151367 -0.028793305 -0.11844655 -0.12830688 -0.2794887 -0.053398475 -0.0648007
0.054305255 0.2742124 -0.16109921 -0.048716854 0.13288818 -0.017566014 -0.07505875 -0.23196654
-0.3436834 -0.12679999 0.06133122 -0.39480543 -0.22325985 -0.2796334 -0.02301546 0.26994687
-0.018900355 -0.13290234 0.11181141 0.3446543 -0.0884618 -0.2359912 0.092743956 -0.041700285
-0.07351915 -0.011499892 0.09597526 -0.19991364 0.10151987 -0.06278456 0.020553244 0.13254498
0.015344468 0.11476921 -0.058136836 -0.11289302 0.08525314 -0.09884162 -0.010486509 0.09010826
-0.01793102 0.040186133 0.075291075 0.11112087 -0.11379893 -0.039426595 0.19789967 0.03172877
0.0100352615 -0.1466909 -0.050701868 0.10454153 -0.008523774 -0.0037186649 0.15992688 -0.10098189
0.1370268 -0.027858287 0.23082972 0.21621126 -0.010783787 0.13402036 -0.11546182 -0.07783814
-0.025279664 0.009765079 0.116987966 -0.00943664 0.026386319 -0.2608873 0.06312245 -0.053827956
0.080432385 0.031915665 -0.13850418 -0.04334773 0.11214781 -0.01894708 -0.095121294 -0.059203114
0.0945098 0.10864147 -0.06627678 0.09267402 -0.002849092 0.1552402 -0.11614163 0.21484686
-0.16295636 -0.025845313 0.03570076 0.09119794 0.027057488 0.32184017 -0.07359179 -0.29654247

rnn_update.bias f4 [64]
00000000: 7491 e4bd 76a5 8f3e 2630 11be b7ca 11bd
00000010: 40af be3c 12f1 283e 0435 2e3e b6ab 8a3d
00000020: fb4a 0fbe ea16 b33c 03eb 47be b4e9 31be
00000030: ac26 e8bd 2ee4 473d e208 0dbe a9cd abbd
00000040: e896 c63d 5a59 d7bd b308 c2bd baf1 363c
00000050: fa41 d2bd fe27 d8bd fc26 f13d b2ec 8bbc
00000060: 4992 1ebe 6e30 32bd 2bd3 053d b139 073e
00000070: 8408 a13d c6fe d53d c6b3 0a3e 3625 b9bd
00000080: e5c0 91bd b1f0 e0bd 097f f8bd 8868 ac3d
00000090: 663b dfbd dc55 7239 8d65 303d 6b7d a1bd
000000a0: 80e7 013e 0f91 d33d e396 9a3d f20b 15bd
000000b0: afaa c7bd edc9 97bd c742 1cbe 6e70 21bd
000000c0: a161 5f3e 3674 8ebc f8b5 38be d205 47bd
000000d0: 1a59 f13b c884 ef3a dcee a33d a3cb dc3d
000000e0: 4ae6 77bd f7f5 0cbe 759b e83d 17da 353e
000000f0: c947 a43d 7a90 3e3e d155 583d 7290 8fbd
-0.111605555 0.28055924 -0.14178523 -0.035593715 0.023276925 0.16498211 0.17012411 0.067710325
-0.13993447 0.021861512 -0.19523244 -0.17374307 -0.11335501 0.048801593 -0.1377292 -0.08388836
0.09696752 -0.10515089 -0.094743155 0.011166031 -0.1026649 -0.10554503 0.11775014 -0.017080639
-0.15485491 -0.043503217 0.03267209 0.13205601 0.07862952 0.10448985 0.1354514 -0.090403005
-0.0711687 -0.10983408 -0.12133605 0.08418375 -0.10900001 0.00023110904 0.043065596 -0.0788525
0.12685966 0.10330402 0.075483106 -0.036388345 -0.09749352 -0.07411561 -0.15259849 -0.039413862
0.21814586 -0.017389398 -0.18038166 -0.048589535 0.007365358 0.0018273825 0.08004543 0.10781028
-0.060522355 -0.13765703 0.11357776 0.17758976 0.080215044 0.18609801 0.052816216 -0.07009973

rnn_to_logits.weight f4 [38, 64]
00000000: c7a4 47bc 624e 373e 35b3 5d3e 01a4 0abe
00000010: 2012 c53e a437 78bd f205 b8bd d8b6 9dbe
00000020: 791b a5be 9800 303f 5b34 10bf 6908 4fbd
00000030: 0eab 993d 823e 7ebd 5298 89be 1ac1 24be
00000040: ac44 cbbe 6486 14be 8d93 f83c 779b fabe
00000050: 6272 babe d22e 32bd c76a 7dbe b51b 0b3d
00000060: caca 47be d729 1f3e b566 7cbe d524 09be
00000070: 8fa8 833e 85b6 933e ae12 debe 734f a03d
00000080: b56f 90be 65a8 f43c 0e93 b9be e71a 8abe
00000090: 5fb0 82be 9176 8f3e 3b1e 5a3e 8ca5 173f
000000a0: dda6 01bd 502d 59bd b1ed 293d ab94 84be
000000b0: be46 88be 6ec3 38be 5fea 323d fcab 3b3e
000000c0: d23e 853e 531d 0e3e ac59 45bd f78f 1bbe
000000d0: 1a67 2fbe e41d 8a3e d7dd c63e 276f 813d
000000e0: 6b41 1c3d 96d1 6ebd 521c 70bd e53c 283e
000000f0: 5d18 5abe c436 d83c 9dd6 1e3e 58c4 df3e
00000100: 4094 27be bc89 5b3e f4e9 a33e 8f5e 57be
00000110: 5fc4 f53e 201c ee3e 58e3 033e 2452 f3bd
00000120: 0bf2 75be 517e eebd 3b27 9f3d ec2a cebd
00000130: 8930 b53d 49b3 2a3e 93df 82be 1235 efbe
00000140: e577 6c3c 6297 bebe de35 b13e 83a4 fcbc
00000150: a256 98be d671 54be c825 1abe 3c6d 803e
00000160: cfb0 3cbe 0142 803e ce88 d1be 373f 493e
00000170: 7efd fa3e 29b7 233f e3ec 7f3e 96c1 10be
00000180: 64aa 8abe 2ab2 ad3e 2bb8 d53d beb8 c2bd
00000190: 0b0f fcbd e7c1 2cbe 9bef 9cbe b81c 293f
000001a0: 2c77 a1be af66 033d 99a6 e8be cc7a 35be
000001b0: 049c 1f3e e9b2 88be 070c 7cbe ed55 b6be
000001c0: ad84 1e3e 09fe 2abd bdde 7cbe 2728 b63d
000001d0: 9075 643e 582d 1d3e aa37 8d3e dc2c 613e
000001e0: a396 15be fe95 94be aa31 803e 3044 993d
000001f0: 26c1 8ebe 09a1 063e 53b5 013d 0d5f 7abe
00000200: 4fb4 f1bc 788b c3be ee5c 4f3e 0097 c0bd
00000210: 510d 9a3d 33c9 11bd 443a d33b 6f7e 23be
00000220: e2c8 fa3d 8884 fbbc acb0 33be a941 af3e
00000230: 04bc 303e 143c 303e ef1b 803c 5e8c 1cbe
00000240: 77b0 bfbe fe0b a63d 127e 903e 4543 34be
00000250: 1ce3 93bd 8230 ed3d 1ab2 fbbd e3d0 683e
00000260: 606d 873d 6471 813e 3528 013e 13d8 173e
00000270: 12f0 923c 4061 403e 422b d73d 11aa 9d3e
00000280: fcae cd3e 6dc7 76bd 407c 05be ca20 313d
00000290: ef6e c8bd 6f37 92be 030c 2c3e 0560 c33d
000002a0: 7a69 8abc 821c 01be 2ebb 5cbe fdef 85be
000002b0: 5cfb 76bd 6556 013e 91b7 383e 62cc edba
000002c0: 9720 ba3c e06f 3cbe 0727 d73c 57e3 5ebc
000002d0: 05d2 86bd dd2f 053e cb75 2ebe a633 c5be
000002e0: c527 e63d 77bd 283e 0bbd 19bd 2679 3cbe
000002f0: 15bf abbd 6703 b5bc 6d5f 783e 06a3 c53d
00000300: 0b71 363e a3e4 313c 8738 033e d56b fdbc
00000310: 9b33 29bd 8f96 053d 4d21 163c 434a 83bd
00000320: 0acd f9bd df35 183e 4634 39be 1098 de3c
00000330: 25b8 cabd 84f5 2e3e 298e e23c 4757 a8bd
00000340: c89c d6bd c531 c33d 9007 50bd 693c e2bd
00000350: 8652 353c 3823 84bd f0fd 94bd e325 5e3e
00000360: 8587 af3c c2e3 c4bc db4c efbd 35dd b0bd
00000370: 57f8 f33d f40e 943e 14e7 b1bd 2879 303e
00000380: 7651 88be 052f e73d d3d9 15be 3905 4ebe
00000390: 2843 d3bd a1c4 333e db08 183c 1d6c 473e
000003a0: f139 93bc 48db cbbd 3a42 19bc a9ba 68be
000003b0: 7514 15bc c758 003e 4e6c d83d 0eb8 03be
000003c0: a2b2 ecbd ac38 2cbe 958f 853d bbd7 753e
000003d0: 2742 00be b999 05be 1a8a a7bd fc37 f73c
000003e0: 807b 263e 383e 0bbe 4b8d 2dbe 26ed 913c
000003f0: b1fd c9bd fda4 ce3d 8dff e63d 4183 a7bd
-0.012185282 0.17900994 0.21650393 -0.13539125 0.3849039 -0.060599938 -0.08985509 -0.3080356
-0.32247522 0.68750906 -0.5632989 -0.05054513 0.07503329 -0.06207133 -0.26874024 -0.16089287
-0.3970083 -0.14504391 0.030343795 -0.48946735 -0.36415392 -0.043501683 -0.24747764 0.03396197
-0.19510952 0.15543304 -0.24648555 -0.13392957 0.25714538 0.2885019 -0.43373626 0.07827654
-0.28210226 0.029865453 -0.36245006 -0.2697365 -0.25525185 0.28020146 0.21300595 0.5923698
-0.031653274 -0.05302173 0.041486446 -0.25894675 -0.26616472 -0.180433 0.043680545 0.18327326
0.2602449 0.13878374 -0.04818122 -0.15191637 -0.17129174 0.2697593 0.38841125 0.06320029
0.038148325 -0.058305345 -0.05862076 0.1642948 -0.21298356 0.026393302 0.15511556 0.43704486
-0.16365147 0.2143926 0.3201443 -0.21032165 0.48001382 0.46505833 0.12879694 -0.118809015
-0.24018113 -0.11645187 0.077711545 -0.100667804 0.08847148 0.16669954 -0.255612 -0.46720177
0.014432882 -0.3722487 0.3461141 -0.030840164 -0.29753596 -0.2074655 -0.15053475 0.2508334
-0.18426822 0.25050357 -0.40924686 0.19653021 0.49021524 0.63951355 0.24992709 -0.14136347
-0.27083123 0.3392499 0.10435518 -0.09507893 -0.12307557 -0.16870843 -0.30651554 0.66059446
-0.31536233 0.03208035 -0.45439604 -0.17722625 0.15586859 -0.26698998 -0.24613963 -0.3561243
0.154803 -0.041746173 -0.24694343 0.08894377 0.22310472 0.15349329 0.2758153 0.21989769
-0.14608245 -0.29020685 0.2503789 0.07483709 -0.27881736 0.13147368 0.031667065 -0.24450321
-0.029504923 -0.38192344 0.20250294 -0.09403801 0.07522071 -0.03559227 0.006446155 -0.159662
0.122453466 -0.030702844 -0.17547864 0.34229782 0.17259222 0.17210418 0.01563832 -0.15287921
-0.3743932 0.08107756 0.28221184 -0.17603786 -0.07221052 0.11581518 -0.122898296 0.22735934
0.066126585 0.25281823 0.12612994 0.1482852 0.01793674 0.18787098 0.10506298 0.30793813
0.40172565 -0.06024878 -0.13035679 0.04324416 -0.09786784 -0.28557917 0.16801457 0.09539799
-0.016895998 -0.12608531 -0.21555778 -0.2615966 -0.06029831 0.12630613 0.18038775 -0.0018142576
0.022720618 -0.18402052 0.026263727 -0.013604007 -0.06583027 0.1300654 -0.17037122 -0.38515967
0.11238054 0.16478525 -0.0375338 -0.1840559 -0.083860554 -0.022096349 0.24255152 0.09650235
0.1781656 0.010857734 0.12814532 -0.030935207 -0.04130898 0.032614287 0.009163213 -0.06410649
-0.12197311 0.148643 -0.18086347 0.027172118 -0.09898404 0.17085844 0.027655678 -0.08219772
-0.104791224 0.09530977 -0.050788462 -0.110466786 0.011067038 -0.0645203 -0.07274997 0.2169414
0.021426925 -0.024034385 -0.11684581 -0.08635942 0.119126014 0.28917658 -0.08686653 0.17233717
-0.2662465 0.11288265 -0.14633875 -0.2011918 -0.103155434 0.17555477 0.009279455 0.19474836
-0.017971965 -0.09953934 -0.009354169 -0.22727455 -0.009099116 0.12533866 0.105675325 -0.1286318
-0.11557509 -0.16818494 0.06521527 0.24008076 -0.12525235 -0.13046922 -0.08180638 0.030178063
0.16258049 -0.13597953 -0.1694843 0.017813276 -0.09862841 0.10090063 0.11279211 -0.081793316

rnn_to_logits.bias f4 [38]
00000000: f6f4 95bd 783f 253e dda2 34be e9fe 0bbc
00000010: be0f 14be e636 22be b121 ba3c 5318 5ebd
00000020: f82a 26be e96d 91be 84d7 13be 9ac3 76be
00000030: 813e 073e 2e23 39be a88d dcbd 4a4f 95bd
00000040: 8693 0e3e 676b dbbd 8085 13be 4d1a 6fbd
00000050: cb2c 0d3e c94f 86bd 724b 8fbd 45cc 1fbc
00000060: 18c7 2bbe 32b7 123e 26eb 66bd c119 08be
00000070: ffac a6bd cdb6 753d e7e0 013e 101d 073d
00000080: 94f2 9abd 0963 373d 387d c4bd e8f7 e7bd
00000090: d844 a93d 9d6b 53be
-0.07322113 0.16137493 -0.17640252 -0.008544662 -0.1445913 -0.15841255 0.022721143 -0.054222416
-0.16227329 -0.28404167 -0.14437681 -0.24098054 0.13207437 -0.18079826 -0.10769206 -0.07290514
0.13923463 -0.10713845 -0.14406395 -0.05837469 0.13786618 -0.065581866 -0.06996812 -0.0097532915
-0.16775167 0.14327696 -0.0563766 -0.13291074 -0.08138465 0.059988786 0.1268345 0.0329867
-0.07565799 0.04477218 -0.09594196 -0.11326581 0.08265084 -0.2064652
