homework/lab2/char_lstm.pth (torch, 101530 bytes, 7 tensors)

embedding.weight f4 [38, 18]
00000000: 365a 55bf da2d b4bf 3923 d33f 1243 e5be
00000010: e251 8fbf bf02 ed3c 881b 3540 95d9 703f
00000020: 7440 dcbf f527 183f d019 3cc0 60ab 20c0
00000030: 27cc 94c0 7ff6 7040 3d01 b33f aa27 473f
00000040: 3473 6f3f 192f fcbe 3839 d6b9 6b73 91bf
00000050: 0d1a 04c0 d19c e2bc 999e e7bf 2d00 f9bb
00000060: eb49 5a3f 1bdd 14c0 6b64 a73f c7e1 bbbf
00000070: 3813 963e 17f8 c93f 4d9e 70be 8e4e c13f
00000080: c362 843f 814f b23f 4ed6 853f d883 5d3e
00000090: 1c23 793c 1881 b4bf 8de5 e3be aa6d 0ebe
000000a0: cdf5 e33f 0a83 cf3f 075b 39bf acbe f73e
000000b0: 4105 8abf 72b3 adbf 32bc 94be 6923 65bf
000000c0: 09da 8dbe 3903 38bf f64d 61bf 139b f73e
000000d0: 4266 b0bd 1cc0 d8be 5a1d 853e 7874 883e
000000e0: 1db9 3dbf 97ee 743f 0240 84bf 469e b3be
000000f0: 43ee 063d b7bd dc3f 1dd7 34bf 7204 70be
00000100: c67f f4be 89b0 06c0 2ee9 a23d 9769 ccbe
00000110: 3351 b6be 00d1 4bbf 92bb 4cbe 5c7f f73d
00000120: 5eff 1cc0 d7f4 933e d19a 7bbf a477 85bf
00000130: 82c1 d03f 90a1 b73c d5da 81be 7aa3 c1bf
00000140: 1215 4cbe 452c 0f40 645f 0cc0 c3fc 1440
00000150: 3a71 b6bf e8b3 b7bf b4b9 ad3f bdd5 e63e
00000160: 23b5 803f 29ad 2940 7e6e 0c40 f214 3abe
00000170: aa33 bbbf c9e4 eb3f 61c5 adbf ffcf 7ebf
00000180: 0405 37bf 07cb ea3e 73a6 203f 7fac 333f
00000190: 0e73 28bf f378 273d ebc8 673f 25f8 d4bf
000001a0: 8846 8e3f 8d89 f3be 5ada 8b3f d582 233e
000001b0: 6bcd 19be 184a aebf 7488 1ebf 1979 973f
000001c0: 5868 b6bf 7dba 9a3f 9ed5 ef3e a9f1 9d3d
000001d0: fd26 fabf 4296 05bf 9dad a1bd 1148 15bf
000001e0: c174 b6bf e20b 0740 5c46 a9bf 49ab b6bf
000001f0: f449 0c40 e539 ddbf d2f8 3abf 4dec f13f
00000200: 9a00 71be e60b 433f 8667 0b3e c468 58be
00000210: c1ac 23bf 0dcc 383c a7c6 193f 1dd7 373e
00000220: 2e99 3dbf db9f 5bbf 7b08 9dbe dcc9 2bbf
00000230: 123a a23b 335a 88bf 2a35 b43f 302a d1bf
00000240: d375 373f bd1b bbbe 4e0f 12bf 7c0e 1abe
00000250: 3fcf 73bd 142e a63d 0947 c3bf 0fe9 6abf
00000260: 857f 00bf 94e2 5dbf ef18 24bf 092f 8cbf
00000270: 802e 29c0 9c69 fcbe 1263 2dbe 0997 933f
00000280: e5da 3040 e33a 4dbf acf5 0abf fadf e03e
00000290: 4e4b f2bd d833 ce3e 2e6d 02bf 1b18 b8be
000002a0: 9ca5 a7bf 7a80 193f 15ec 873f 0460 87bd
000002b0: 2285 c53e 3ade 24bf 3395 8cbf cc1d e03e
000002c0: ba3e 8bbf c585 af3e fb15 0540 106a 233e
000002d0: 150a 4e3e 7590 dcbe f10b 613f 1fb5 083f
000002e0: 54c9 0bbf bf97 15be 8b97 cbbf 5887 883f
000002f0: c3e7 99be 0e38 19bf de46 993e d162 4c3f
00000300: 896a 56bf a415 783e 31ac abbf bb72 043f
00000310: b2e7 ba3f d1e7 043e 5c5c 693f 7e1e cfbf
00000320: 4119 21c0 ce87 0f40 53c0 933d 5f03 613e
00000330: dcee 81bf 2da7 9bbf 14bd 98bf d21f b7bf
00000340: f443 1140 66c6 41bf 87e4 01be 9f00 ff3f
00000350: 96af bfbf 1c47 03c0 0dac cd3f bce8 4d3f
00000360: 0d14 a5be 5b99 163f ed42 58bd 8c35 e1be
00000370: 6c38 88bf 1217 773e 5d45 2e3f 3fe5 933f
00000380: fb17 f63f 5111 fb3c 7efe 223f 766a 303f
00000390: 4935 3b3f 952a fcbf 97fc a1bf 3c9f 533f
000003a0: 3f80 233f 8059 2a40 e0dc 93be 419c 1a40
000003b0: 9094 c3be 928f 08c0 f8bb dbbf 0971 923f
000003c0: f8d5 5abe aedb ac3f a163 e73f 1385 bc3f
000003d0: 5531 d4bd 816c e8bd 1597 33bf af81 0dbe
000003e0: 92c7 c33e 3f37 ecbf 803a 0f3f e161 cebf
000003f0: f90f c63e aa67 cdbf 61f6 723f aa6c 1e3f
-0.83340776 -1.4076493 1.6495124 -0.44777733 -1.1196864 0.028931974 2.8298054 0.94082004
-1.720717 0.5943597 -2.9390755 -2.51046 -4.649921 3.765045 1.3984753 0.777949
0.9353516 -0.49254683 -0.00040859892 -1.1363348 -2.06409 -0.027662667 -1.8095275 -0.007598898
0.8526904 -2.3259952 1.307752 -1.4678277 0.29311538 1.5778836 -0.23497887 1.5102098
1.034264 1.3930513 1.0456026 0.21632326 0.015206125 -1.4101896 -0.4451107 -0.13909021
1.7809387 1.6211865 -0.7240452 0.4838766 -1.0782853 -1.3570387 -0.29049832 -0.89507157
-0.2770541 -0.7187992 -0.88009584 0.483605 -0.08613254 -0.42334068 0.25998956 0.2665136
-0.74110585 0.9567656 -1.0332034 -0.3508169 0.032942068 1.7245396 -0.70640737 -0.23439196
-0.47753733 -2.1045249 0.07954632 -0.3992431 -0.35608825 -0.79615784 -0.19993427 0.12084839
-2.4530864 0.28897735 -0.98283106 -1.0427136 1.6309054 0.022415906 -0.25362268 -1.5128014
-0.19929913 2.237077 -2.1933222 2.3279274 -1.4253304 -1.4351778 1.3572297 0.45084944
1.0055279 2.6511939 2.194244 -0.18172053 -1.4625142 1.8429195 -1.357586 -0.99536127
-0.7149203 0.45858023 0.6275398 0.70185083 -0.6580056 0.04088683 0.9054095 -1.6638228
1.1115274 -0.4756588 1.0926011 0.15967877 -0.15019767 -1.3616362 -0.6192696 1.1833831
-1.4250593 1.2088162 0.46842664 0.07712109 -1.9543148 -0.521824 -0.07894442 -0.5831309
-1.425438 2.1101003 -1.3224597 -1.4271022 2.1920137 -1.7283293 -0.7303592 1.8900238
-0.23535386 0.7619003 0.1361371 -0.21133715 -0.63935477 0.011279118 0.60068744 0.17953153
-0.7406186 -0.85790795 -0.30670533 -0.6710489 0.00495077 -1.0652527 1.4078724 -1.6341
0.7166416 -0.365446 -0.57054603 -0.15044588 -0.059523817 0.081142575 -1.5256053 -0.9176187
-0.5019458 -0.86673856 -0.64100546 -1.0951854 -2.6434631 -0.49299324 -0.16932324 1.1530467
2.7633603 -0.8016798 -0.54281116 0.4392088 -0.118307695 0.4027393 -0.50947845 -0.3595589
-1.3097415 0.59961665 1.0618922 -0.066101104 0.38578135 -0.6440159 -1.0983032 0.43772733
-1.0878518 0.34281746 2.0794666 0.15958428 0.20121033 -0.43078962 0.87908846 0.5340137
-0.5460408 -0.14608668 -1.5905622 1.0666304 -0.30059633 -0.5985116 0.2993688 0.7983828
-0.8375631 0.24227005 -1.3411924 0.51737565 1.4601958 0.12979056 0.91156554 -1.618118
-2.5171664 2.2426639 0.07214417 0.21973942 -1.0151019 -1.2160393 -1.1932702 -1.4306586
2.2697725 -0.75693357 -0.12684833 1.9922065 -1.497546 -2.0512152 1.6068131 0.8043325
-0.3224186 0.5882775 -0.0527982 -0.43986166 -1.0642219 0.24129894 0.6807459 1.1554335
1.9226068 0.030647906 0.63669574 0.68912446 0.7312818 -1.9700495 -1.2655209 0.8266485
0.63867563 2.6617126 -0.28879452 2.415787 -0.38199282 -2.1337628 -1.7166739 1.1440746
-0.21370685 1.3504541 1.8077279 1.4728111 -0.10360972 -0.113488205 -0.7015241 -0.13819002
0.38238198 -1.845436 0.5594864 -1.612362 0.3868406 -1.6047261 0.94907194 0.6188456

lstm.weight_ih_l0 f4 [256, 18]
00000000: fc2a 0e3e 8492 2ebc dd78 20bd a359 4ebd
00000010: 5767 d6bd 3979 9cbc 4969 303e 5fbc 653d
00000020: cdac fb3b e45d 1cbe acda 063d 2583 ac3d
00000030: 7d95 e23d 45dc 0a3d 1c5d 12bd 834d 9c3c
00000040: 1c42 bcbd ade9 96bd b58d ce3d f628 a4bd
00000050: d27d dcbb 6b65 d6bd 7ddc d8bc 9a9a 093d
00000060: af42 333e 59c3 3a3e c320 2ebd d259 683d
00000070: 45f2 0a3e 8283 edbd dc54 8abc 474b f53d
00000080: ffe1 1abe e5a3 b03d 2a38 b93c 61e3 65bd
00000090: c160 7fbe c7c4 93bd 6a07 93be 9ba7 8dbe
000000a0: e2eb 8fbd 5284 d6bc 8a0d 953d 7113 c4bd
000000b0: 751a a0bd 0878 5fbd 07b1 1d3e 2460 acbc
000000c0: 3387 c3be 055b 613d 79b0 1cbe 21e2 9cbd
000000d0: 716a ba3c 65ab 9cbd 5c4c 20bd 9120 fb3c
000000e0: 44b2 083e 703c 35be bad4 63bd f14f f33c
000000f0: 4444 02be 7564 733d 41f0 10bd 44f5 7e3d
00000100: 4fd6 293d bc72 033d b524 75bd 5980 32bd
00000110: 5f68 e2bd 00c4 2c3d d2bf c3ba 3f58 98bd
00000120: 73e5 56bd c395 2a3d da29 f3bc 0ccb b53d
00000130: dd78 99bc d1a6 ee3d b2c7 073e 77b0 92bd
00000140: 49a1 b13d ecb0 5ebd 0725 66bd f5f3 e03c
00000150: 7126 1a3c 96bb ec3d 2efa 13bd 6d13 883d
00000160: 3953 703d f58a d33b bce0 283d 8c2d 15be
00000170: b732 02bc 49b9 7e3d 5280 1a3d e3da 9dbc
00000180: cdf3 273d 15e7 be3c e620 ca3d ef8b 1f3d
00000190: 0221 a7bc bb91 9ebc 99f4 c6bd 9ac9 993d
000001a0: e660 773d 70b8 aabc d38d d5bc 7a40 95bd
000001b0: 572c 843d 432c 2f3d baa3 09bc c42d 47be
000001c0: ea85 afbd 2e59 213e f430 cb3d 8387 8b3c
000001d0: 9a54 943d f834 1d3b 847a 1fbe e6df 1bbe
000001e0: bb03 563d dbe8 5c3d 5486 f33c f88e 6a3e
000001f0: 2ea6 763e c512 183e e334 ddbd 8a7f dabd
00000200: a5f4 903c ac00 7dbd 4a3f a93d 07d9 61bb
00000210: 862c 20bd c564 75bd c13a b23d 9b08 663d
00000220: 6d6a 283e f50f d53d 4c08 113e c404 0e3e
00000230: 0f7a 283d 1576 ba3d 0c64 89bc f146 7d3d
00000240: 06fe d1bd 5ca2 b2be af76 c8be 8803 e5bd
00000250: af1b cdbe 748d 433e 625f 91bd 090f 08be
00000260: 654f 443e eb58 a3be 053c d8bc baaf 503c
00000270: 48dd 30be f6d1 803e b057 b03c 0a68 f03d
00000280: 0342 f93e 20cf 39bd 06c9 90bb d710 4dbc
00000290: 1de6 a43d cc0e d23c d0ae babe 4d37 78bd
000002a0: f9a5 593e ac03 24bb 694d cfbc 0b04 193e
000002b0: d56b 99be be3d adbd 1e47 e6bd 7cea f8bc
000002c0: 7a96 d33d 694e aa3e cd5a ae3d 4a00 f23c
000002d0: 90df cdbd 9b07 b13d f10a 283e 0e0f c8bd
000002e0: 6bbc 67bd c696 4cbd 42fa babd ed4a 9e3d
000002f0: c187 83bd 1744 e7bd 30ca bcbc d795 2c3b
00000300: 6f85 873d 9574 82bd 4d02 3a3d a5c4 213d
00000310: 5c24 f23c 61cf 5b3d c7ce ba3d 1c75 d7bd
00000320: 875e c6bd fba1 4dbe c8e7 0cbe a96a 8f3e
00000330: 533f 7c3e 25c8 21be fbd8 dc3d b3db b1bd
00000340: 1323 dcbd 0dc5 063e ae5a 43be 2f08 0e3e
00000350: d03b a43e 4eb0 a53d 6d05 753e 812d 5dbe
00000360: 4a11 7cbe 3224 d1bd 2056 e9bd f32c 3e3e
00000370: 1a45 20bc 7601 4abd 69f1 483e 7554 33be
00000380: aaa3 943e c290 10be b427 b53d 503d c73d
00000390: c08c 95be 496c c63d 3246 44bd 8232 a8bd
000003a0: f99c 4a3d 76c9 50be 854a 10bd e736 b4bd
000003b0: d5f4 8a3d 2248 a6bd 3503 97bd 451a 443d
000003c0: 0502 a4bd 6abf efbc 5424 81bd 5323 eabc
000003d0: 0487 d7bd b978 f23d 92a8 64bd 2a1f cb3d
000003e0: 0757 a5bb c8cc ce3d 03a1 5bbc 11ec 1fbd
000003f0: 7b0a 8f3e f10f 86bd e7a9 1dbe 195e 0abe
0.13883585 -0.010655049 -0.039177764 -0.050378453 -0.10468929 -0.019100772 0.17227663 0.056087848
0.0076805116 -0.15270191 0.032923386 0.08423451 0.11063669 0.03390147 -0.035733327 0.01907993
-0.09192297 -0.07368789 0.10085622 -0.08015625 -0.006728866 -0.10468563 -0.026472325 0.033594705
0.17505907 0.18238582 -0.042511713 0.056726284 0.13568981 -0.11597349 -0.016886167 0.11977249
-0.15125273 0.086250104 0.022609789 -0.05612505 -0.24939252 -0.07215267 -0.28716594 -0.27666935
-0.07027413 -0.026186142 0.07277973 -0.09574021 -0.07817546 -0.05455783 0.15399562 -0.021041937
-0.38189086 0.055018444 -0.15301694 -0.07660318 0.022755833 -0.076498784 -0.039135322 0.030655177
0.13349253 -0.17698836 -0.055622794 0.029701205 -0.12721354 0.059421975 -0.035385374 0.062245622
0.041464146 0.03209184 -0.05984946 -0.043579433 -0.110550635 0.042179108 -0.0014934486 -0.074387066
-0.052464914 0.04164673 -0.029683042 0.08876619 -0.01873439 0.116529115 0.13259771 -0.07162564
0.08673341 -0.054367945 -0.056187656 0.027460078 0.009408579 0.11559217 -0.03612726 0.0664433
0.058673117 0.006455774 0.04122995 -0.14568156 -0.007946662 0.06218842 0.037720032 -0.019269412
0.04100399 0.023303548 0.09869556 0.03895181 -0.020401482 -0.0193566 -0.09714622 0.075091556
0.060395144 -0.0208399 -0.026068604 -0.072876886 0.0645377 0.04276682 -0.008400852 -0.19451052
-0.08570464 0.15756676 0.099214464 0.01703239 0.07242699 0.002398787 -0.1557408 -0.15222129
0.05224965 0.053933006 0.029727139 0.22906101 0.2408683 0.1485091 -0.10801103 -0.106688574
0.01769478 -0.06176822 0.082640246 -0.0034461634 -0.03910496 -0.059910554 0.08702613 0.05616055
0.16446848 0.10403434 0.14163321 0.13869005 0.04113203 0.091045536 -0.016771339 0.061835233
-0.10253529 -0.34889495 -0.39153048 -0.11182314 -0.40060183 0.19096929 -0.07098271 -0.13286985
0.19170912 -0.31903777 -0.026395807 0.012737209 -0.17271912 0.25160187 0.021526188 0.11738594
0.48683175 -0.045363545 -0.004418495 -0.012516222 0.08051703 0.025641821 -0.36461496 -0.060599614
0.2125472 -0.0025026603 -0.025305467 0.14942949 -0.29965082 -0.08459042 -0.11244033 -0.030385248
0.103314355 0.33262947 0.085134126 0.029541153 -0.10052407 0.08644029 0.16410424 -0.097684965
-0.056576174 -0.049948476 -0.09129764 0.07729135 -0.064223774 -0.11292284 -0.02304563 0.0026334429
0.06617247 -0.063698925 0.04541235 0.039494175 0.029558353 0.05366457 0.09121471 -0.10520384
-0.096859984 -0.20081322 -0.13760293 0.28011063 0.24633531 -0.15799005 0.10783573 -0.086844824
-0.107488774 0.13161106 -0.1907756 0.1387031 0.32076883 0.08090268 0.23927851 -0.2159939
-0.2461597 -0.10211982 -0.1139338 0.18571834 -0.0097821 -0.0493178 0.1962334 -0.17512687
0.29031116 -0.1411772 0.088454634 0.09728491 -0.29208946 0.096886225 -0.047918506 -0.082127586
0.049466107 -0.20389351 -0.035227317 -0.08799534 0.06784979 -0.08119227 -0.073736586 0.047876615
-0.08008198 -0.029266078 -0.06305757 -0.028581297 -0.10523799 0.11839432 -0.055824824 0.099180534
-0.005045775 0.10097653 -0.013405087 -0.03904349 0.27937683 -0.06546009 -0.15396844 -0.13512458

lstm.weight_hh_l0 f4 [256, 64]
00000000: 17b5 d83d 4f92 05be 82f8 82be 5e47 51be
00000010: e6c8 94be 870c 603e 0def 143d 5485 5f3e
00000020: 518a c9bc 3e01 7cbc 7674 8abe 77a8 3cbc
00000030: 2191 0b3d 2cf6 23be dacc a03d aa4b e9bd
00000040: d132 28bd 6772 0fbe a1c5 943e 3885 143e
00000050: a759 49bd 0e69 62be 99e6 093e 8670 503e
00000060: f4a3 5e3e 0224 593e cf59 da3d 6fc6 51bd
00000070: 295e cd3d e2b9 2ebd 4181 f03d 6a52 1fbe
00000080: d877 8abe 577b 2b3e 6354 9fbd 7a68 1abe
00000090: 3279 12be 78bd 503e a366 903d 7d4f 8e3e
000000a0: 5868 233d 6ece fe3c b838 043e a721 96be
000000b0: 232e 043d 4c83 63bb 7ea9 0f3c ed22 523e
000000c0: 30fa 86bd 20c0 213d e3bb 59be 1433 68bd
000000d0: f548 0abe bf64 003e 2c0f 29be f658 053e
000000e0: 370c b93d 2ed3 803c 5c78 4a3e 5276 093e
000000f0: c38f ee3c cc98 903d b444 60be 131d efbd
00000100: 76ba 1d3e 9032 633e 6e2d 53be c5cc acbe
00000110: d74b 9abe 26ef 643e c9cf 773c 1c83 373e
00000120: 99f9 673e d64d 18be 301d 2fbe 92c9 a53e
00000130: 3013 143c b26c 2fbe 043b 853e 067f 85be
00000140: 3835 30be 3dda a5be 9c18 543e dfbe 903e
00000150: d28a 043e 5eb7 39be 7605 403e 4243 053e
00000160: da69 0a3e 4096 133e b1d3 bb3d 2dc3 26be
00000170: 0c5d a33e a6c5 73be 8383 b1bd 2f99 61be
00000180: 8457 08be 9257 863e dd43 66be 3f05 1dbe
00000190: ce23 9bbe f49a b33e 08cb 0d3e 30cd 5d3e
000001a0: f54b 853e af1f 9a3e 3d7f 823e 88cf 65be
000001b0: 9535 853d 3a3e 43be b8b3 1f3e 2a5d 2f3e
000001c0: 6f78 95be 5b97 a93e 60c1 6e3d 3d41 99bd
000001d0: 0d36 f4bd 70fe 853e 04f2 a4bd ffac 9f3e
000001e0: 8ecb 623e 95db 633e e1c5 bdbc 459e 3d3e
000001f0: 3335 4d3e 0b14 a53e 7c8e 8bbe f21e 5bbe
00000200: 5833 f9bc b8a2 383c ec1d 5b3d 706e 39be
00000210: 6c79 24be 7e14 f13d 456c c93d 3db4 c23d
00000220: 7042 c23c cbde b1bd 0b47 efbd 4036 8ebd
00000230: 7922 203e 6d50 8dbd ddb6 d8bd 8bff 113c
00000240: a731 6d3d 3f5c dabd 90ca 22bc ccf1 c2bd
00000250: 5c84 37be 48d0 05be 9ea1 40bc 64b3 003e
00000260: cf20 fd3d f1fb 713d f429 643e a999 cc3d
00000270: f7f9 8c3d f872 bb3a 06de 21bb 1e2a f6bc
00000280: 11b2 38bd 6da7 023e d729 63bd 26d9 1bbe
00000290: 2063 c2bc b288 94bd 06d5 053e 8153 31bd
000002a0: b90b 0b3d b2c5 383d a60c 583e 2200 8cbd
000002b0: 3062 293e 35ef 0e3d 0e32 b5bd 4af4 a93d
000002c0: 3702 debd fe97 0b3e 00b6 2eb7 76a8 9abe
000002d0: fd54 49be d7f7 a8bc cadb 3a3e 0600 7cbd
000002e0: b609 f73a f669 a2bd a5c8 a13d 7d01 bb3c
000002f0: 97bf 9bbd 32ea cebb 6003 e03c 0bc2 9a3d
00000300: e8be 1e3e 0290 223e 2839 00be c2b9 78bd
00000310: 668b 0abe fe46 a0bc 2a18 bcbc 4229 753d
00000320: adaa 7abd 3b7c 003b 0c4c 08be 9aa8 863c
00000330: 66da aa3d 464d f4bd 0c6c 8bbd d9b0 4abe
00000340: 0f5e b8bd 6eab 0a3d 8124 28bc 0d76 0b3d
00000350: 548e 11be eb6a 063c 1a7f 663d 5199 00bb
00000360: 82d2 393e b9f9 18bd 788f b63d 0200 55bd
00000370: 8c10 273e 557a cfbd fb26 02be d205 b4bd
00000380: dc73 ccbd d74f 263e db5f 843d 7354 03bd
00000390: 264b 23be af37 1a3e 6c72 0bbc 8e75 963c
000003a0: 3a1f 2ebd 9139 6c3d 6405 24bd 8bd9 1e3d
000003b0: 6153 1c3e 1994 14bd c2e7 193b b2a9 843c
000003c0: 9d8e 2fbe 6345 053d 5bab 64bd 326e 35be
000003d0: 89ad 96bd f544 c5ba 7df0 5e3d 06b8 3cbd
000003e0: 2066 fcbc 2ed7 75bd de7c 753d 47d4 463e
000003f0: 6c61 943d b046 8d3d f903 92bd 9511 c8bd
0.10581415 -0.13044094 -0.2558022 -0.2043738 -0.29059523 0.21879779 0.03636079 0.21828204
-0.024602087 -0.015381156 -0.27041978 -0.0115147745 0.034073953 -0.16011876 0.07851572 -0.11391385
-0.041064087 -0.14008485 0.2905703 0.14503944 -0.049157765 -0.22110388 0.13466872 0.20355424
0.2174223 0.21205142 0.10661661 -0.05121463 0.10027725 -0.04265774 0.11743403 -0.15558782
-0.2704456 0.16746269 -0.07779767 -0.15078917 -0.14304045 0.20384777 0.070508264 0.2779502
0.03989443 0.031104293 0.12912261 -0.2932255 0.032270562 -0.003471571 0.008768437 0.20521136
-0.06590688 0.039489865 -0.2126308 -0.056689337 -0.13504393 0.12538432 -0.16509694 0.13022217
0.09035533 0.015725698 0.19772476 0.13424042 0.029121285 0.07060394 -0.21901208 -0.11675467
0.1540316 0.22187257 -0.20622799 -0.33749977 -0.30135986 0.22356853 0.015125223 0.17921108
0.22653808 -0.14873442 -0.17100978 0.32380348 0.009037778 -0.17131308 0.26021588 -0.26073474
-0.17207801 -0.32393065 0.20712513 0.28270623 0.12943581 -0.18136355 0.18752083 0.13013938
0.13516942 0.14412785 0.09171236 -0.16285391 0.31906927 -0.23805866 -0.08667662 -0.22031091
-0.13314635 0.26238686 -0.22486825 -0.15334032 -0.30300754 0.35079157 0.13846982 0.21660304
0.26034513 0.30102298 0.254877 -0.22442448 0.065043606 -0.19066706 0.15595901 0.17125383
-0.29193446 0.33123288 0.058289886 -0.07483146 -0.11924372 0.26170683 -0.08053973 0.31186673
0.22147962 0.22251733 -0.023165645 0.18517406 0.20039825 0.32241854 -0.27257144 -0.21398523
-0.03041999 0.011269264 0.053495333 -0.18108535 -0.16061944 0.11771487 0.09835104 0.09507034
0.02371332 -0.086850725 -0.11683472 -0.06943941 0.1563815 -0.069001056 -0.105817534 0.008911024
0.05790868 -0.10662126 -0.00993599 -0.09518775 -0.17921585 -0.13067734 -0.011757283 0.12568432
0.12359773 0.05907816 0.22281629 0.09990246 0.068836145 0.0014301231 -0.0024698987 -0.03004938
-0.045091692 0.1275918 -0.055459823 -0.15219554 -0.023728907 -0.07252635 0.13069543 -0.043292526
0.033946726 0.045110412 0.21098575 -0.06835963 0.16541362 0.034896094 -0.08847438 0.082985476
-0.10840266 0.13632199 -1.0413583e-05 -0.3020665 -0.19661327 -0.020625992 0.18247905 -0.06152346
0.0018847499 -0.07930367 0.07899598 0.022827858 -0.07604902 -0.0063145394 0.02734536 0.07556542
0.15502512 0.15875247 -0.12521803 -0.060724027 -0.13529739 -0.019565102 -0.022960741 0.0598538
-0.061197925 0.0019605297 -0.1331026 0.016437817 0.083424374 -0.11928801 -0.06807718 -0.19794025
-0.09002315 0.033854894 -0.010262609 0.03404813 -0.1421445 0.008204202 0.056273557 -0.0019622634
0.18146709 -0.03734753 0.08914083 -0.05200196 0.16314906 -0.10130755 -0.12710182 -0.08790173
-0.09983036 0.16241394 0.064635955 -0.03206296 -0.15946636 0.15060304 -0.008511167 0.018366601
-0.04251025 0.057672087 -0.040044203 0.038781684 0.15266182 -0.03627405 0.0023484086 0.016194198
-0.17144246 0.032536875 -0.05582748 -0.17717817 -0.07357318 -0.0015050458 0.054428566 -0.046073936
-0.030810416 -0.060019664 0.059933536 0.19416915 0.07245144 0.06898248 -0.07129664 -0.097689785

lstm.bias_ih_l0 f4 [256]
00000000: 465e 193e 34f2 bb3e b2ae 5fbb 6472 213d
00000010: 2e87 f53d a89a 6c3d c25a 473e 2195 143e
00000020: 04cf 083e c09a 553c 931e 813d 9a90 b23d
00000030: 9f31 213d f11a 91bd 319c b93d 8295 9c3c
00000040: 72c5 9d3d f741 f23d fa74 8e3e 3f12 643e
00000050: dadb 1c3e ac96 0c3e 5c12 133d 2e30 983e
00000060: 5a8d b93d ed71 733d 6d2d 7c3e 9601 b23d
00000070: e86d 953d cfea 223d dd10 833e cd29 42bd
00000080: 5982 1b3e 682d f3bc 4f38 053e 0e0b 853d
00000090: 973b 5cbc d4c3 2e3e 748c ee3d 0581 233e
000000a0: d3ea 013e a076 053e ecf3 ae3d 0850 1d3e
000000b0: 6ff5 b23b 7209 bebd 623b 803e 74b0 103d
000000c0: e663 e03d 3768 1c3d d051 363e 132e d43d
000000d0: 9a32 823e 9b28 2b3d 6fab 463e 223d e5bb
000000e0: 3f51 1b3e 10a8 4c3e 53ad 553e a5cc 323d
000000f0: bb6a 0d3e 5899 183b d838 313e ee18 ce3d
00000100: bdcd b7bd d81c 6abd ea6a fcbc 5825 993d
00000110: 95dc 90bd 1b94 ce3d 1209 8ebc 8629 d9bc
00000120: 0421 253d 29a7 fc3d e753 8ebc 836f eabd
00000130: 6b37 4c3d 0788 3c3e 7576 d83d 224d 7b3d
00000140: 6d69 023e f324 6bbb c3f3 923d d0fc bbbc
00000150: 8c86 17be 89cf a1bd 278c bfbc 9c55 b3bd
00000160: 5f0e c53a 3dff 3c3c ff06 ddbd e9ee bebd
00000170: 93a6 18bc 1585 8f3b 0cb4 85bd 84a9 53bc
00000180: 27cd 30bd 4d34 c2bc 1745 843d 1272 76bb
00000190: 43d6 983c 6b8f e13c 34be 4ebd 1be8 1d3e
000001a0: b80b ec3c be50 293e 231b cd3d c5b6 f0bd
000001b0: 5ad6 7cbb acbb 843a 4047 34bd d4f1 df3a
000001c0: a1e0 f33d 4c50 c03d c4e4 e93c 4b23 9cbb
000001d0: 0a22 f83b e1c1 b63d 9183 a53d a24b 69bc
000001e0: 1a2e 333e 94a9 823d c15b 48bd 49dd 53bd
000001f0: 5733 303e bc69 003e 2e74 123e ff8f 89bd
00000200: 7511 af3d ee52 c9bc 9ef5 c5bd 5d3e b93b
00000210: a544 c73d c905 863d a983 c43d 81df b3bd
00000220: ceec dd3d 9d70 bfbb 05d5 24be d3ab c5bd
00000230: 79d9 56bd 1e00 c9bd 620a b23d 1baf 03be
00000240: 1918 063d 19dd 85bd 2595 3f3e 9c70 d83d
00000250: 0533 12be 7a65 edbd 2231 b8bd a3a9 d73d
00000260: 3ff4 9d3d c24d 6b3d dd72 e13d bb6e 973d
00000270: f039 2dbd 18a6 093d 2c21 b2bd 8699 a7bd
00000280: 8f25 d7bd 2f85 073e 2710 34be e84c 2b3d
00000290: 2eca 1dbd 2faa 16bd 790b 073e ab78 be3c
000002a0: ca1c f03b 104c c93d 0553 e03c bb84 c5bd
000002b0: ff92 1abd 6b69 3cbd 66aa 833d b2fd 1c3e
000002c0: 7cc7 19be 8dbe 0abd 7a40 23bd bf2f 563d
000002d0: c9b4 2e3d f939 203e a047 07bd 9074 333d
000002e0: 1a02 40bd 3beb 083d 83ae 053e ca60 eb3b
000002f0: 2ceb bc3d 57cb 53bc 70f3 13be a9bc 04bd
00000300: a639 97bd 963e a1bb 8545 77bd 081e 79bd
00000310: 97de 68bc b344 143e d562 4b3e f51e c23d
00000320: 362d aa3e 235a 043c d860 813d 4070 b13d
00000330: 0025 8f3e aac1 4bbd 752e 653c 1c5d 3f3e
00000340: 0c07 0c3e 4d46 313e 2477 403c 02a0 e83d
00000350: 4707 013e 0385 473d 2833 133e 7aea a23e
00000360: 299a 7bbd 9142 51bd f337 873e bb9c af3d
00000370: 44ba c2bd f8b8 ff3d 267e 533e b40a 173e
00000380: e276 f53d e983 f1bc bb3d a23d b8ab 45bd
00000390: 383f ed3d d2a9 ad3d 1822 103e 139f 34bc
000003a0: 9da0 3abd 57ef 8fbd c1fc 4e3d 6e50 653e
000003b0: 3002 193e 5e3c 75bd c84e 0c3e d75b 46bc
000003c0: 1dcd 2b3e 2a2e 95bd 057f 983e cff5 923d
000003d0: 504d 433e f072 0abc 84dc 823e 5c0a 84bd
000003e0: 6eed 3ebb 289f f43d da1a 5d3e 7b2e 4b3d
000003f0: cfd0 d2bc 0e70 113e bc64 f73d 6613 483e
0.14977369 0.36708224 -0.0034131226 0.039415732 0.11988674 0.05776468 0.19468215 0.14510013
0.1336022 0.013037384 0.0630466 0.08718987 0.039353963 -0.07085217 0.09062994 0.01911426
0.07703675 0.11828988 0.2782362 0.22272585 0.15318242 0.13729352 0.03590618 0.29724258
0.09060164 0.05943482 0.24626704 0.08691709 0.072963536 0.039774712 0.25598803 -0.047403146
0.15186442 -0.029684737 0.13009761 0.06496249 -0.013441942 0.1706689 0.11647883 0.15967186
0.12687235 0.13033533 0.08542618 0.15362561 0.005461387 -0.09279145 0.25045305 0.03532453
0.10956554 0.038185325 0.17804646 0.103603505 0.2542923 0.04178677 0.19401334 -0.006995813
0.15167712 0.19985986 0.20866899 0.043652195 0.13810246 0.002328476 0.1730684 0.10063349
-0.08974788 -0.057156414 -0.0308127 0.07477826 -0.07073323 0.100868426 -0.01733831 -0.026509058
0.04031469 0.12336571 -0.017373992 -0.114470504 0.04985754 0.18411265 0.10569469 0.061352856
0.12735529 -0.0035880178 0.071754 -0.022947699 -0.1479742 -0.07900912 -0.02338226 -0.08756563
0.001503419 0.011535463 -0.1079235 -0.09322912 -0.009317058 0.0043798783 -0.06528482 -0.012918834
-0.0431644 -0.02370658 0.0645849 -0.0037604612 0.018656855 0.027534207 -0.05047436 0.15420572
0.028814182 0.16534707 0.100149415 -0.117536105 -0.0038579912 0.0010126731 -0.04401326 0.001708562
0.11908079 0.093903154 0.028551467 -0.0047649494 0.007572417 0.08923698 0.08081735 -0.014239224
0.17498055 0.06380001 -0.04891563 -0.051724706 0.17207085 0.12540334 0.14302132 -0.06716918
0.085482515 -0.024575677 -0.096659884 0.0056531862 0.0972989 0.06544072 0.09595425 -0.08782864
0.108361825 -0.005842282 -0.16096886 -0.096519135 -0.05245349 -0.098144755 0.086933866 -0.12859766
0.032737825 -0.06536312 0.18709238 0.105683535 -0.14277275 -0.11591621 -0.08993746 0.105304025
0.07712602 0.057447203 0.110082366 0.07394167 -0.04229158 0.033605665 -0.08697733 -0.08183579
-0.105052106 0.132344 -0.17584287 0.04182139 -0.03852289 -0.036783393 0.1318797 0.023250898
0.0073276507 0.09828961 0.027383337 -0.09644457 -0.037737843 -0.045998972 0.06428985 0.15331152
-0.15017503 -0.03387313 -0.03985641 0.052291628 0.04265288 0.15647115 -0.03302729 0.043812335
-0.046877004 0.03342746 0.13054852 0.007183169 0.09224543 -0.012926898 -0.14448333 -0.032406483
-0.073840424 -0.004920791 -0.060369033 -0.060819656 -0.014213226 0.14479332 0.1986192 0.09478561
0.33237618 0.008078131 0.063172996 0.08663988 0.27957916 -0.04974524 0.013988127 0.18687862
0.13674563 0.17311974 0.011747155 0.11358644 0.12600432 0.048710834 0.14374983 0.31819516
-0.061426315 -0.051088873 0.26409873 0.08574816 -0.095081836 0.12486452 0.2065359 0.14750177
0.11985566 -0.029481845 0.079219304 -0.048259467 0.11584324 0.08479656 0.14075506 -0.011024254
-0.04556333 -0.07028072 0.050534014 0.22393963 0.1494224 -0.059872024 0.13701928 -0.012106857
0.16777463 -0.07284196 0.29784408 0.071757905 0.19072461 -0.008450255 0.25558865 -0.064472884
-0.0029133218 0.11944419 0.21592274 0.049604874 -0.025734333 0.14202902 0.120797604 0.1953865

lstm.bias_hh_l0 f4 [256]
00000000: 9595 2d3e a4b6 b13e a054 f9bc 7145 2e3c
00000010: fa50 343e c00d 3bbd 3911 8d3e 9b9d 083d
00000020: f950 4c3e e640 c2bb ca7b 91bd 66bb 893e
00000030: a3ef 803d 46a6 be3b 7350 dfbc ba0c acbc
00000040: 6ac7 b93d c752 893d 5c67 8b3e 68d8 0e3e
00000050: 1656 603e 41f1 4b3e d031 0a3e c3fb ff3d
00000060: 1973 58bd aacc 3c3e 0b00 a43e 1bf6 483e
00000070: 0d22 0a3e abc7 9b3d 0921 9f3e d86c 7bbc
00000080: 7943 a03d 58a8 80bd d9f4 233d 81ac 453d
00000090: c8c2 273e 5177 613e 8446 823d f7ef 9c3d
000000a0: fd97 58bc 25d5 253e 1f24 203e 134d 863e
000000b0: 2aea 933c 76ff e63d a589 643e 1484 8e3c
000000c0: 2f6e 7dbd 693b d23d 6c33 d83d 6994 8abc
000000d0: e127 5c3e 8a46 f23d f732 603e ef17 6c3d
000000e0: 6ba5 1f3e caad 883d c413 343e 890b acbc
000000f0: 7edf e03c cc00 a93d 137b 903d 7c83 9e3e
00000100: bded bebb 5a96 07be aed5 c03d ef1b e23c
00000110: 294d 8c3d 2f0b b23d 6130 4f3d 39b7 213e
00000120: ae8b 9f3c 5083 073d 6ebf 4dbd 9181 33be
00000130: 5f77 0abe da9a 0c3e 81f0 4ebc 9f43 f2bd
00000140: 9778 863c bc7e acbd a525 f23d 1ee0 0ebd
00000150: accb a7bd c5d3 973b 9f7e 1fbd bba6 05be
00000160: 614c 763b 00b8 673d 2bcf 86bc cfba f5bd
00000170: 94a5 cbbc 394a 2bbe d769 46bd 9fba 3abc
00000180: f477 e3bd 0ca9 853d 08cd 433e 7a02 fdbb
00000190: be73 ff3c 8af5 b9bc 9c8b 5dbd f861 a43d
000001a0: 26df 023d 5a71 053e 2fc2 333e 4149 bc3d
000001b0: 2a5a b1bd 12bd 62bd c58e 11bd 014c bf3d
000001c0: 0915 a1bc eb5d 303c ae36 4bbd 8c91 61bc
000001d0: ef97 a6bc 817c ca3d 47cb e9bd 069f 243e
000001e0: 6691 923d 5251 46bd a4df 83bc b8cc b43d
000001f0: 4111 413e 2fe4 e53d 2f11 c73d 2c4d b13d
00000200: 56da a43d a63d 7f3b 29a1 05bd 0597 e7bd
00000210: 5bcb 02be a4ee f53d edac c73d a058 153e
00000220: 6164 2abc 9df8 98bc b187 c8bd 60cb 793d
00000230: a465 773d b00c b4bd 93a3 e83c 8401 7abd
00000240: 9531 98bd a38d c33c 45de 3bbd 3189 f23d
00000250: dfb7 14be 2459 1a3c 6ea8 043e 8a6c d53c
00000260: 4814 a5bd d941 94bd 3fd7 9e3d 37bd 843d
00000270: 80ea 21bd 3f42 eb3b 2de4 833d e84d 14be
00000280: 37f1 3a3b a5cc 993d 97a9 97bd 7c82 16bd
00000290: b83e 22be e6f5 063e 5dbb ae3d f242 1b3e
000002a0: 7d14 51bd 5cd0 9cbd 7e52 ce3d 6c8c 39be
000002b0: b33e 263e de77 b6bd 4801 0abd 2a58 a33d
000002c0: defe dc3b 013f b33d ac3c 48bd 9111 07be
000002d0: 123e 17bc 575b ddbc c6b3 78bd 16b4 ad3d
000002e0: 676d 0e3d a568 0c3e 6550 e73c a303 bfbd
000002f0: 675b 583d d522 1e3e 77d3 d2bd e3ba 8ebd
00000300: 0c15 913d 9c38 273e 347b c8bd 3db0 c63c
00000310: bb35 063e 4a9d 8e3c 56bb 863e f9b7 ac3d
00000320: 4e92 693e 9843 413e ee5a 833d 5587 d83d
00000330: b88c 053e ae28 52bc 3d74 e03d c7da 923d
00000340: c7be 063d 0118 6e3d 894f 533d 8f9b 453e
00000350: 8a50 853d 8562 0f3e cb2e f6bc 9b90 2f3e
00000360: ed69 adbd cd76 a7bd f98a 383e 225e 8c3e
00000370: dce9 edbd 114a 183e d614 a53c 442b 8dbc
00000380: f68c bf3d 5f86 1c3d 7834 ae3d e84d 503d
00000390: 978e 953d 7cc1 3e3d cd47 ed3d 9edd 67bd
000003a0: 6e11 09be b136 cdbd d24a a53b 2b64 213d
000003b0: 9a9e b23d 836e 9e3c 47a6 613e b325 b73d
000003c0: a54b 903d 0cb3 603a 9935 873e 318f 363d
000003d0: ad45 913e 4118 b8bd 8700 363e c3e8 8a3d
000003e0: 70d3 ed3d db0c 713d 26bb 043e 300d e33d
000003f0: 8083 5b3d 7035 0d3d 2e5f 903d b9a4 623d
0.16951592 0.34709656 -0.03043586 0.010636673 0.17609015 -0.04566741 0.27552202 0.03335343
0.19952764 -0.0059281467 -0.07103689 0.26900786 0.06295707 0.005818161 -0.02726004 -0.021002162
0.09071238 0.06705242 0.27227294 0.1394974 0.21907839 0.1991625 0.13495564 0.124991916
-0.05284414 0.18437448 0.32031283 0.19625132 0.13489552 0.07606443 0.3107989 -0.015345775
0.078253694 -0.06282109 0.040028427 0.048260216 0.16382897 0.22018172 0.06361106 0.07662957
-0.013219831 0.1619459 0.15638779 0.26230678 0.018055994 0.11279194 0.22318132 0.017396964
-0.061872657 0.10265238 0.10556683 -0.01691647 0.21499588 0.118298605 0.21894442 0.057640012
0.15590446 0.06673773 0.17585665 -0.021001594 0.02745032 0.08252105 0.070547245 0.3095969
-0.0058266805 -0.13240948 0.09415756 0.02760121 0.06850655 0.08693539 0.050583247 0.1579255
0.019475784 0.033084214 -0.05023139 -0.17529894 -0.13522099 0.13730946 -0.012630583 -0.11829304
0.016414924 -0.0842261 0.118235864 -0.034881704 -0.08193144 0.004633399 -0.038939115 -0.13051884
0.0037582146 0.05657196 -0.016456207 -0.119985215 -0.024859227 -0.16727532 -0.04844078 -0.011397033
-0.111068636 0.06526384 0.19121182 -0.0077212425 0.03118312 -0.02270009 -0.05408822 0.080264986
0.031951092 0.13031521 0.17554544 0.091936596 -0.086597756 -0.055356093 -0.035536546 0.093406685
-0.01966335 0.010764579 -0.049612693 -0.013767611 -0.02033612 0.098870285 -0.11415725 0.16076288
0.07156639 -0.048417397 -0.016097851 0.088281095 0.18854238 0.11225163 0.097200744 0.086572975
0.08049457 0.0038946657 -0.032624397 -0.113081016 -0.12772886 0.12008408 0.0974978 0.14584589
-0.010399909 -0.018673236 -0.09791506 0.06098497 0.060399666 -0.087914824 0.02839831 -0.0610366
-0.07431332 0.023871249 -0.04586627 0.118425734 -0.14523266 0.009420667 0.12954876 0.026052732
-0.08060509 -0.07239122 0.07755899 0.06481402 -0.039530277 0.007179528 0.064400055 -0.14482844
0.0028525123 0.07509736 -0.074053936 -0.036745533 -0.15844238 0.1317974 0.085318305 0.15162256
-0.05104493 -0.07656929 0.10074328 -0.18119973 0.16234855 -0.089095816 -0.03369263 0.079758
0.0067442497 0.087522514 -0.048885986 -0.13190295 -0.009231107 -0.027021093 -0.06071832 0.08481614
0.034772303 0.13711794 0.028236577 -0.093268655 0.052821543 0.15442975 -0.1029424 -0.069692396
0.070840925 0.16330189 -0.09789124 0.024253959 0.13106434 0.017408986 0.263148 0.084335275
0.22809717 0.18873441 0.06413828 0.105726875 0.13041961 -0.012827082 0.10959671 0.07170635
0.032896783 0.05812836 0.051589523 0.19297622 0.06509502 0.14002426 -0.03005161 0.17145006
-0.08467469 -0.08176956 0.18021764 0.27415568 -0.11616871 0.14872004 0.020151537 -0.017232545
0.09353058 0.038214084 0.08506101 0.050855547 0.073025875 0.04657124 0.115859605 -0.056607835
-0.13385555 -0.10020197 0.0050443197 0.03940217 0.08721657 0.019339805 0.22036086 0.089427374
0.07045678 0.0008571602 0.2640808 0.04457015 0.2837347 -0.08989001 0.17773639 0.06782677
0.11612594 0.05885015 0.12962016 0.110865 0.053592205 0.03447479 0.07049404 0.055332873

rnn_to_logits.weight f4 [38, 64]
00000000: e4ea 1b3d 1cd8 f83e b454 923d 8c16 6abe
00000010: afad 9a3e 4be4 50be c4b4 92be 40b0 13be
00000020: 6482 543e 87bd f53d ed94 07be 64bb f5be
00000030: 161b 3dbe 2910 6cbe 2fb4 afbe cd69 0b3f
00000040: bda6 813e 706c 973c ffcd f63d e43a 36be
00000050: 02a9 fcbe 429c ee3e 9c33 2ebe 7691 6d3e
00000060: 925b ac3d 8389 83be 456b aa3e 6881 dbbe
00000070: 95e7 a53d 18bc 1b3f ba0c 06bf 7468 33bd
00000080: 2b4b 6abd ac92 8bbe 00c6 cdbd 97d9 4b3e
00000090: 83ee 17bc 8a06 2a3d 89aa 6d3d 5ced 3c3e
000000a0: fc24 2a3e 26dc 333e 4ea6 103e 515b 8cbe
000000b0: 211f 673e aba7 763e ea35 12be ea35 0e3e
000000c0: daef e2bd 3c52 26be d151 93be a6f2 30be
000000d0: 9011 74be a11c 2cbe c966 c43e 0e98 723d
000000e0: be1e ccbc cd7c 18bc d554 093e 7ced 4dbe
000000f0: 6153 b1be 5c38 20be 2b7e 243d 8dc7 17be
00000100: a4b1 863e 5a95 9c3e af61 47bc 4cff c43d
00000110: 8dcf e0bd 477e 1c3b f094 f63d a239 453e
00000120: 0c2f 693e e3e0 dd3e 4c8e 35be 14c2 e7bd
00000130: d120 ef3e f62c 0a3d 19eb 123e b199 173f
00000140: 854e 3bbe f3be 7f3e 31ed 2e3e f797 c53d
00000150: acf8 03bf 7b5f 4abe b63c 483d 1050 9cbd
00000160: 4527 433d 1264 0e3e d94b c13e da9b aebe
00000170: 50ed 063e 6108 fabe fb7a dbbd d371 01be
00000180: bb4b 68be 5414 593e cc30 76bd c289 59bd
00000190: c751 813d 51d7 ffbd 4224 be3d 3e40 d2bc
000001a0: 176e 673e 29dc 0f3e 964b 5a3e 57de 53be
000001b0: 9881 143f 1dcc 0cbe e81d 00bf 76bc 803c
000001c0: 1c13 b3bd 0be8 e23d 92f6 b0be e692 c7be
000001d0: 89cd a6be d106 19be 7313 5d3e f59a e3bc
000001e0: 322a aa3d 9973 5a3e d761 e2bc 9b52 653e
000001f0: a4cd 7ebc 75c3 cf3d 17e0 28be 2f24 fc3d
00000200: 7681 dbbc 83b1 b5bd ab7d fa3d 2fc0 af3d
00000210: 949c 723e 2526 51bd f70a 013d 6a4f 4abe
00000220: 404d c13d 8c72 823e 3f6c f33d 9ec8 3ebe
00000230: bd76 703e 6d3f 363e 9e96 9ebc 5248 4f3e
00000240: dbb3 043d e410 8b3e 4a67 f0bc 67e8 adbc
00000250: bcf4 e8bd c0e4 533d 0e4a aa3c 8bbe 87be
00000260: d2b3 7ebe 81d8 82bd 3994 89be 5cb2 343d
00000270: 4b47 6dbe 1195 ad3b 738b bb3d 5782 3d3e
00000280: 88d0 1d3d 939c 2abd 86d6 793d 3f94 743e
00000290: 8c24 363e 0a12 9ebb c475 0fbd b2f1 91be
000002a0: 57d9 43be fc61 82be 42fc 51be a61f 843d
000002b0: a3e0 c8bc edca 0e3c 1276 cf3d e331 bfbd
000002c0: 6e0d ef3d fb3c 99bc 6bde 7abd c5fd 6abd
000002d0: 7137 ab3c c08f 78be af12 1e3e 6bde f5bd
000002e0: dda1 8abe e089 6cbe 97e6 99bd add0 4bbd
000002f0: b5f7 5abe 3e3f 11be e2d6 3c3e fa5a 8f3e
00000300: bbc8 3abe cac2 913d 21d5 063e a778 83bd
00000310: b6b3 7c3d 3697 c1bc 7368 a63d e534 80bd
00000320: e575 bcbc 4d1f 183a 6b73 383d 58d4 60be
00000330: d994 e33d aa7f 1d3d 338d 27be a81b c73c
00000340: a9fd 283e 5a43 d03d e7e6 d1bd 2ae1 ddbd
00000350: 0485 85be 1b95 9c3e 41f5 0cbe 5606 12bb
00000360: c3d1 a33c bc73 6fbd 83d3 e53d 3645 9abd
00000370: c7d6 e83d f1b3 adbd f937 c93d fdc0 2a3e
00000380: ce3f 293e 60cc 4ebe 37a1 103e 063e cc3d
00000390: 2489 55bb 0afc 45be ec99 a5bd b42c cbbc
000003a0: aaac 16be be3e b9bd 897f 893d 1ad6 09bc
000003b0: 3164 8e3d 8ad0 0a3e a3ee f8bc a850 963c
000003c0: 864b 273d 5547 98bd a9dc 10bd ba2f 86bd
000003d0: 4ca7 66be 3c0d dc3c a686 0b3c 574d bebc
000003e0: 6b7d 89bc d64b c13d 0499 8a3d efe8 8abe
000003f0: dc01 b3bd 7f38 a0bd 8cc2 1d3d 4489 4d3e
0.038065806 0.48602378 0.07145062 -0.22860163 0.30210635 -0.20399587 -0.28653538 -0.14422703
0.20752865 0.1199904 -0.13240404 -0.4799453 -0.18467364 -0.2305304 -0.34317157 0.54458314
0.25322524 0.018484324 0.120510094 -0.17795902 -0.49347693 0.4660359 -0.17011875 0.2320002
0.08415903 -0.2569085 0.33284965 -0.42872167 0.081008114 0.60833883 -0.5236317 -0.043800786
-0.057200592 -0.2726034 -0.10047531 0.19907223 -0.009273174 0.041510142 0.058023963 0.1844992
0.16615671 0.17564449 0.1412594 -0.2741342 0.22570468 0.24087398 -0.14278379 0.13887754
-0.11080904 -0.16242307 -0.28773358 -0.17280063 -0.23834825 -0.16807796 0.3835967 0.059227042
-0.024917003 -0.009307099 0.13411267 -0.20110124 -0.34633926 -0.156465 0.040159386 -0.14822216
0.26307404 0.30582696 -0.012169286 0.096190065 -0.10977087 0.0023878978 0.12040126 0.19260266
0.22771853 0.43335637 -0.17730063 -0.11316314 0.46704724 0.033734284 0.14347495 0.5921889
-0.18291672 0.24975185 0.17082669 0.096481256 -0.5155132 -0.19762985 0.048886023 -0.07632458
0.047644872 0.13905361 0.3775318 -0.3410328 0.13176465 -0.48834518 -0.10716816 -0.12641077
-0.22685139 0.21199161 -0.06010513 -0.05310989 0.06314426 -0.1249224 0.092842594 -0.025665399
0.2260059 0.14048828 0.21317896 -0.20690285 0.58010244 -0.13749738 -0.50045633 0.015714865
-0.08743879 0.11079415 -0.34563118 -0.38979262 -0.32578686 -0.14944007 0.2158945 -0.02778385
0.08308829 0.2133316 -0.027634544 0.22394793 -0.015551958 0.10144702 -0.16491733 0.12311589
-0.02679513 -0.08871748 0.122310005 0.08581578 0.23692542 -0.051061768 0.031504598 -0.19756857
0.094385624 0.25478017 0.11885881 -0.18631217 0.23482795 0.17797633 -0.01935893 0.20242432
0.032398086 0.27161324 -0.029346127 -0.021228982 -0.113748044 0.051731825 0.020787265 -0.2651256
-0.24873284 -0.06388951 -0.26870897 0.04411541 -0.23171727 0.005297311 0.09157457 0.18506752
0.03852895 -0.041653227 0.0609956 0.23884676 0.17787379 -0.004823928 -0.03502442 -0.2850471
-0.19125877 -0.2546538 -0.20506385 0.06451349 -0.024521178 0.008715373 0.10129942 -0.09335687
0.116724834 -0.018705836 -0.06124727 -0.05737092 0.02090046 -0.24273586 0.15436815 -0.120053135
-0.27076617 -0.2309947 -0.07514685 -0.049759556 -0.21383555 -0.14184281 0.18441346 0.27999097
-0.18240635 0.07117231 0.1316724 -0.06419497 0.061694823 -0.023631673 0.08125391 -0.06260089
-0.023005435 0.0005803004 0.045031946 -0.21956003 0.11112375 0.038451828 -0.16362457 0.02430518
0.16503014 0.10169096 -0.10249119 -0.10833962 -0.26078045 0.30582508 -0.13765432 -0.0022281609
0.019997483 -0.058459982 0.11221983 -0.07532732 0.113690905 -0.08481587 0.09825129 0.16675182
0.16528246 -0.2019515 0.14123999 0.099727675 -0.0032582963 -0.19334427 -0.08085999 -0.02480159
-0.14714304 -0.0904517 0.067137785 -0.008412862 0.06952704 0.13556114 -0.030387228 0.018349007
0.04084351 -0.074354805 -0.035366688 -0.06552072 -0.22524756 0.02686178 0.008515989 -0.023230238
-0.016783437 0.09438293 0.06767467 -0.2713084 -0.08740589 -0.07823276 0.038515612 0.20071894

rnn_to_logits.bias f4 [38]
00000000: b7d6 86bd 44f3 853c 1829 aa3c cffa b7bd
00000010: 1f06 40be db27 5dbe d265 df3c dc79 a1bd
00000020: 18cc 89bc d87f 46be 4042 15be 89e2 a1bb
00000030: 8e5e c6bd e4fa 333d 4703 8ebd b034 9cbd
00000040: fd09 c83d c047 bf3d 57da e23b 4436 2cbd
00000050: 2740 c53d 5317 d9bd 72d8 503d 3cfd 103d
00000060: f283 843d 01e6 713c d4f1 f3bc 7776 a8bc
00000070: 840b 1abc c994 ab3d 4fb5 053e 9e27 a8bd
00000080: 821c f53d f89b d63d 4e49 d439 e336 803d
00000090: 97b6 29ba 1b70 cfbc
-0.06583922 0.01635135 0.020771548 -0.08983385 -0.18752335 -0.21597235 0.027270231 -0.07884571
-0.016820952 -0.19384706 -0.14576054 -0.004940335 -0.096860036 0.04394044 -0.06934219 -0.07627237
0.0976753 0.09339857 0.006923001 -0.04204394 0.09631377 -0.10600152 0.05098767 0.035397753
0.06470479 0.01476431 -0.029778399 -0.020564301 -0.00940216 0.08377988 0.13057445 -0.082106814
0.11968328 0.104789674 0.00040490407 0.06260469 -0.00064740464 -0.02532201
